…
huggingface/tokenizers: The current process just got forked, after parallelism has already been used. Disabling parallelism to avoid deadlocks...
To disable this warning, you can either:
	- Avoid using `tokenizers` before the fork if possible
	- Explicitly set the environment variable TOKENIZERS_PARALLELISM=(true | false)
Special tokens have been added in the vocabulary, make sure the associated word embeddings are fine-tuned or trained.
Special tokens have been added in the vocabulary, make sure the associated word embeddings are fine-tuned or trained.
Special tokens have been added in the vocabulary, make sure the associated word embeddings are fine-tuned or trained.
dict_values([Panacea_SVD_Linear(
  (base_layer): Linear(in_features=2048, out_features=2048, bias=False)
  (dropout): Dropout(p=0.1, inplace=False)
), Panacea_SVD_Linear(
  (base_layer): Linear(in_features=2048, out_features=2048, bias=False)
  (dropout): Dropout(p=0.1, inplace=False)
), Panacea_SVD_Linear(
  (base_layer): Linear(in_features=2048, out_features=2048, bias=False)
  (dropout): Dropout(p=0.1, inplace=False)
), Panacea_SVD_Linear(
  (base_layer): Linear(in_features=2048, out_features=2048, bias=True)
  (dropout): Dropout(p=0.1, inplace=False)
), Panacea_SVD_Linear(
  (base_layer): Linear(in_features=2048, out_features=2048, bias=False)
  (dropout): Dropout(p=0.1, inplace=False)
), Panacea_SVD_Linear(
  (base_layer): Linear(in_features=2048, out_features=2048, bias=False)
  (dropout): Dropout(p=0.1, inplace=False)
), Panacea_SVD_Linear(
  (base_layer): Linear(in_features=2048, out_features=2048, bias=False)
  (dropout): Dropout(p=0.1, inplace=False)
), Panacea_SVD_Linear(
  (base_layer): Linear(in_features=2048, out_features=2048, bias=True)
  (dropout): Dropout(p=0.1, inplace=False)
), Panacea_SVD_Linear(
  (base_layer): Linear(in_features=2048, out_features=2048, bias=False)
  (dropout): Dropout(p=0.1, inplace=False)
), Panacea_SVD_Linear(
  (base_layer): Linear(in_features=2048, out_features=2048, bias=False)
  (dropout): Dropout(p=0.1, inplace=False)
), Panacea_SVD_Linear(
  (base_layer): Linear(in_features=2048, out_features=2048, bias=False)
  (dropout): Dropout(p=0.1, inplace=False)
), Panacea_SVD_Linear(
  (base_layer): Linear(in_features=2048, out_features=2048, bias=True)
  (dropout): Dropout(p=0.1, inplace=False)
), Panacea_SVD_Linear(
  (base_layer): Linear(in_features=2048, out_features=2048, bias=False)
  (dropout): Dropout(p=0.1, inplace=False)
), Panacea_SVD_Linear(
  (base_layer): Linear(in_features=2048, out_features=2048, bias=False)
  (dropout): Dropout(p=0.1, inplace=False)
), Panacea_SVD_Linear(
  (base_layer): Linear(in_features=2048, out_features=2048, bias=False)
  (dropout): Dropout(p=0.1, inplace=False)
), Panacea_SVD_Linear(
  (base_layer): Linear(in_features=2048, out_features=2048, bias=True)
  (dropout): Dropout(p=0.1, inplace=False)
), Panacea_SVD_Linear(
  (base_layer): Linear(in_features=2048, out_features=2048, bias=False)
  (dropout): Dropout(p=0.1, inplace=False)
), Panacea_SVD_Linear(
  (base_layer): Linear(in_features=2048, out_features=2048, bias=False)
  (dropout): Dropout(p=0.1, inplace=False)
), Panacea_SVD_Linear(
  (base_layer): Linear(in_features=2048, out_features=2048, bias=False)
  (dropout): Dropout(p=0.1, inplace=False)
), Panacea_SVD_Linear(
  (base_layer): Linear(in_features=2048, out_features=2048, bias=True)
  (dropout): Dropout(p=0.1, inplace=False)
), Panacea_SVD_Linear(
  (base_layer): Linear(in_features=2048, out_features=2048, bias=False)
  (dropout): Dropout(p=0.1, inplace=False)
), Panacea_SVD_Linear(
  (base_layer): Linear(in_features=2048, out_features=2048, bias=False)
  (dropout): Dropout(p=0.1, inplace=False)
), Panacea_SVD_Linear(
  (base_layer): Linear(in_features=2048, out_features=2048, bias=False)
  (dropout): Dropout(p=0.1, inplace=False)
), Panacea_SVD_Linear(
  (base_layer): Linear(in_features=2048, out_features=2048, bias=True)
  (dropout): Dropout(p=0.1, inplace=False)
), Panacea_SVD_Linear(
  (base_layer): Linear(in_features=2048, out_features=2048, bias=False)
  (dropout): Dropout(p=0.1, inplace=False)
), Panacea_SVD_Linear(
  (base_layer): Linear(in_features=2048, out_features=2048, bias=False)
  (dropout): Dropout(p=0.1, inplace=False)
), Panacea_SVD_Linear(
  (base_layer): Linear(in_features=2048, out_features=2048, bias=False)
  (dropout): Dropout(p=0.1, inplace=False)
), Panacea_SVD_Linear(
  (base_layer): Linear(in_features=2048, out_features=2048, bias=True)
  (dropout): Dropout(p=0.1, inplace=False)
), Panacea_SVD_Linear(
  (base_layer): Linear(in_features=2048, out_features=2048, bias=False)
  (dropout): Dropout(p=0.1, inplace=False)
), Panacea_SVD_Linear(
  (base_layer): Linear(in_features=2048, out_features=2048, bias=False)
  (dropout): Dropout(p=0.1, inplace=False)
), Panacea_SVD_Linear(
  (base_layer): Linear(in_features=2048, out_features=2048, bias=False)
  (dropout): Dropout(p=0.1, inplace=False)
), Panacea_SVD_Linear(
  (base_layer): Linear(in_features=2048, out_features=2048, bias=True)
  (dropout): Dropout(p=0.1, inplace=False)
), Panacea_SVD_Linear(
  (base_layer): Linear(in_features=2048, out_features=2048, bias=False)
  (dropout): Dropout(p=0.1, inplace=False)
), Panacea_SVD_Linear(
  (base_layer): Linear(in_features=2048, out_features=2048, bias=False)
  (dropout): Dropout(p=0.1, inplace=False)
), Panacea_SVD_Linear(
  (base_layer): Linear(in_features=2048, out_features=2048, bias=False)
  (dropout): Dropout(p=0.1, inplace=False)
), Panacea_SVD_Linear(
  (base_layer): Linear(in_features=2048, out_features=2048, bias=True)
  (dropout): Dropout(p=0.1, inplace=False)
), Panacea_SVD_Linear(
  (base_layer): Linear(in_features=2048, out_features=2048, bias=False)
  (dropout): Dropout(p=0.1, inplace=False)
), Panacea_SVD_Linear(
  (base_layer): Linear(in_features=2048, out_features=2048, bias=False)
  (dropout): Dropout(p=0.1, inplace=False)
), Panacea_SVD_Linear(
  (base_layer): Linear(in_features=2048, out_features=2048, bias=False)
  (dropout): Dropout(p=0.1, inplace=False)
), Panacea_SVD_Linear(
  (base_layer): Linear(in_features=2048, out_features=2048, bias=True)
  (dropout): Dropout(p=0.1, inplace=False)
), Panacea_SVD_Linear(
  (base_layer): Linear(in_features=2048, out_features=2048, bias=False)
  (dropout): Dropout(p=0.1, inplace=False)
), Panacea_SVD_Linear(
  (base_layer): Linear(in_features=2048, out_features=2048, bias=False)
  (dropout): Dropout(p=0.1, inplace=False)
), Panacea_SVD_Linear(
  (base_layer): Linear(in_features=2048, out_features=2048, bias=False)
  (dropout): Dropout(p=0.1, inplace=False)
), Panacea_SVD_Linear(
  (base_layer): Linear(in_features=2048, out_features=2048, bias=True)
  (dropout): Dropout(p=0.1, inplace=False)
), Panacea_SVD_Linear(
  (base_layer): Linear(in_features=2048, out_features=2048, bias=False)
  (dropout): Dropout(p=0.1, inplace=False)
), Panacea_SVD_Linear(
  (base_layer): Linear(in_features=2048, out_features=2048, bias=False)
  (dropout): Dropout(p=0.1, inplace=False)
), Panacea_SVD_Linear(
  (base_layer): Linear(in_features=2048, out_features=2048, bias=False)
  (dropout): Dropout(p=0.1, inplace=False)
), Panacea_SVD_Linear(
  (base_layer): Linear(in_features=2048, out_features=2048, bias=True)
  (dropout): Dropout(p=0.1, inplace=False)
), Panacea_SVD_Linear(
  (base_layer): Linear(in_features=2048, out_features=2048, bias=False)
  (dropout): Dropout(p=0.1, inplace=False)
), Panacea_SVD_Linear(
  (base_layer): Linear(in_features=2048, out_features=2048, bias=False)
  (dropout): Dropout(p=0.1, inplace=False)
), Panacea_SVD_Linear(
  (base_layer): Linear(in_features=2048, out_features=2048, bias=False)
  (dropout): Dropout(p=0.1, inplace=False)
), Panacea_SVD_Linear(
  (base_layer): Linear(in_features=2048, out_features=2048, bias=True)
  (dropout): Dropout(p=0.1, inplace=False)
), Panacea_SVD_Linear(
  (base_layer): Linear(in_features=2048, out_features=2048, bias=False)
  (dropout): Dropout(p=0.1, inplace=False)
), Panacea_SVD_Linear(
  (base_layer): Linear(in_features=2048, out_features=2048, bias=False)
  (dropout): Dropout(p=0.1, inplace=False)
), Panacea_SVD_Linear(
  (base_layer): Linear(in_features=2048, out_features=2048, bias=False)
  (dropout): Dropout(p=0.1, inplace=False)
), Panacea_SVD_Linear(
  (base_layer): Linear(in_features=2048, out_features=2048, bias=True)
  (dropout): Dropout(p=0.1, inplace=False)
), Panacea_SVD_Linear(
  (base_layer): Linear(in_features=2048, out_features=2048, bias=False)
  (dropout): Dropout(p=0.1, inplace=False)
), Panacea_SVD_Linear(
  (base_layer): Linear(in_features=2048, out_features=2048, bias=False)
  (dropout): Dropout(p=0.1, inplace=False)
), Panacea_SVD_Linear(
  (base_layer): Linear(in_features=2048, out_features=2048, bias=False)
  (dropout): Dropout(p=0.1, inplace=False)
), Panacea_SVD_Linear(
  (base_layer): Linear(in_features=2048, out_features=2048, bias=True)
  (dropout): Dropout(p=0.1, inplace=False)
), Panacea_SVD_Linear(
  (base_layer): Linear(in_features=2048, out_features=2048, bias=False)
  (dropout): Dropout(p=0.1, inplace=False)
), Panacea_SVD_Linear(
  (base_layer): Linear(in_features=2048, out_features=2048, bias=False)
  (dropout): Dropout(p=0.1, inplace=False)
), Panacea_SVD_Linear(
  (base_layer): Linear(in_features=2048, out_features=2048, bias=False)
  (dropout): Dropout(p=0.1, inplace=False)
), Panacea_SVD_Linear(
  (base_layer): Linear(in_features=2048, out_features=2048, bias=True)
  (dropout): Dropout(p=0.1, inplace=False)
), Panacea_SVD_Linear(
  (base_layer): Linear(in_features=2048, out_features=2048, bias=False)
  (dropout): Dropout(p=0.1, inplace=False)
), Panacea_SVD_Linear(
  (base_layer): Linear(in_features=2048, out_features=2048, bias=False)
  (dropout): Dropout(p=0.1, inplace=False)
), Panacea_SVD_Linear(
  (base_layer): Linear(in_features=2048, out_features=2048, bias=False)
  (dropout): Dropout(p=0.1, inplace=False)
), Panacea_SVD_Linear(
  (base_layer): Linear(in_features=2048, out_features=2048, bias=True)
  (dropout): Dropout(p=0.1, inplace=False)
), Panacea_SVD_Linear(
  (base_layer): Linear(in_features=2048, out_features=2048, bias=False)
  (dropout): Dropout(p=0.1, inplace=False)
), Panacea_SVD_Linear(
  (base_layer): Linear(in_features=2048, out_features=2048, bias=False)
  (dropout): Dropout(p=0.1, inplace=False)
), Panacea_SVD_Linear(
  (base_layer): Linear(in_features=2048, out_features=2048, bias=False)
  (dropout): Dropout(p=0.1, inplace=False)
), Panacea_SVD_Linear(
  (base_layer): Linear(in_features=2048, out_features=2048, bias=True)
  (dropout): Dropout(p=0.1, inplace=False)
), Panacea_SVD_Linear(
  (base_layer): Linear(in_features=2048, out_features=2048, bias=False)
  (dropout): Dropout(p=0.1, inplace=False)
), Panacea_SVD_Linear(
  (base_layer): Linear(in_features=2048, out_features=2048, bias=False)
  (dropout): Dropout(p=0.1, inplace=False)
), Panacea_SVD_Linear(
  (base_layer): Linear(in_features=2048, out_features=2048, bias=False)
  (dropout): Dropout(p=0.1, inplace=False)
), Panacea_SVD_Linear(
  (base_layer): Linear(in_features=2048, out_features=2048, bias=True)
  (dropout): Dropout(p=0.1, inplace=False)
), Panacea_SVD_Linear(
  (base_layer): Linear(in_features=2048, out_features=2048, bias=False)
  (dropout): Dropout(p=0.1, inplace=False)
), Panacea_SVD_Linear(
  (base_layer): Linear(in_features=2048, out_features=2048, bias=False)
  (dropout): Dropout(p=0.1, inplace=False)
), Panacea_SVD_Linear(
  (base_layer): Linear(in_features=2048, out_features=2048, bias=False)
  (dropout): Dropout(p=0.1, inplace=False)
), Panacea_SVD_Linear(
  (base_layer): Linear(in_features=2048, out_features=2048, bias=True)
  (dropout): Dropout(p=0.1, inplace=False)
), Panacea_SVD_Linear(
  (base_layer): Linear(in_features=2048, out_features=2048, bias=False)
  (dropout): Dropout(p=0.1, inplace=False)
), Panacea_SVD_Linear(
  (base_layer): Linear(in_features=2048, out_features=2048, bias=False)
  (dropout): Dropout(p=0.1, inplace=False)
), Panacea_SVD_Linear(
  (base_layer): Linear(in_features=2048, out_features=2048, bias=False)
  (dropout): Dropout(p=0.1, inplace=False)
), Panacea_SVD_Linear(
  (base_layer): Linear(in_features=2048, out_features=2048, bias=True)
  (dropout): Dropout(p=0.1, inplace=False)
), Panacea_SVD_Linear(
  (base_layer): Linear(in_features=2048, out_features=2048, bias=False)
  (dropout): Dropout(p=0.1, inplace=False)
), Panacea_SVD_Linear(
  (base_layer): Linear(in_features=2048, out_features=2048, bias=False)
  (dropout): Dropout(p=0.1, inplace=False)
), Panacea_SVD_Linear(
  (base_layer): Linear(in_features=2048, out_features=2048, bias=False)
  (dropout): Dropout(p=0.1, inplace=False)
), Panacea_SVD_Linear(
  (base_layer): Linear(in_features=2048, out_features=2048, bias=True)
  (dropout): Dropout(p=0.1, inplace=False)
), Panacea_SVD_Linear(
  (base_layer): Linear(in_features=2048, out_features=2048, bias=False)
  (dropout): Dropout(p=0.1, inplace=False)
), Panacea_SVD_Linear(
  (base_layer): Linear(in_features=2048, out_features=2048, bias=False)
  (dropout): Dropout(p=0.1, inplace=False)
), Panacea_SVD_Linear(
  (base_layer): Linear(in_features=2048, out_features=2048, bias=False)
  (dropout): Dropout(p=0.1, inplace=False)
), Panacea_SVD_Linear(
  (base_layer): Linear(in_features=2048, out_features=2048, bias=True)
  (dropout): Dropout(p=0.1, inplace=False)
), Panacea_SVD_Linear(
  (base_layer): Linear(in_features=2048, out_features=2048, bias=False)
  (dropout): Dropout(p=0.1, inplace=False)
), Panacea_SVD_Linear(
  (base_layer): Linear(in_features=2048, out_features=2048, bias=False)
  (dropout): Dropout(p=0.1, inplace=False)
), Panacea_SVD_Linear(
  (base_layer): Linear(in_features=2048, out_features=2048, bias=False)
  (dropout): Dropout(p=0.1, inplace=False)
), Panacea_SVD_Linear(
  (base_layer): Linear(in_features=2048, out_features=2048, bias=True)
  (dropout): Dropout(p=0.1, inplace=False)
)])
module.pretrained_model.transformer.h.0.attn.attention.k_proj, (4, 4)
module.pretrained_model.transformer.h.0.attn.attention.v_proj, (4, 4)
module.pretrained_model.transformer.h.0.attn.attention.q_proj, (4, 4)
module.pretrained_model.transformer.h.0.attn.attention.out_proj, (4, 4)
module.pretrained_model.transformer.h.1.attn.attention.k_proj, (4, 4)
…
